app/src/main/assets/scream_classifier.tflite (tflite, 602728 bytes, 5 tensors)

arith.constant f4 [64, 256]
0	0xbf3fd0ec	-0.74928164
1	0xbf6a5c78	-0.91547346
2	0xc101bf03	-8.109134
3	0xbf25d5f6	-0.64779603
4	0x3f0256e5	0.5091384
5	0x40b4cd0b	5.6500297
6	0xbf3eaa78	-0.74478865
7	0xc009b73e	-2.1518092
8	0xbf8baa72	-1.0911391
9	0x3ff2b8c7	1.896264
10	0x3e92aa9f	0.286458
11	0xbf726b56	-0.9469503
12	0xc09bbdd9	-4.866925
13	0xbf55c9a0	-0.8351078
14	0x3f8e92ae	1.1138513
15	0x3fac9071	1.348158
16	0xc078ecaf	-3.889446
17	0x40156a47	2.3346117
18	0xbb861d11	-0.0040928205
19	0xc02f5d68	-2.740076
20	0x3fe51d18	1.7899504
21	0xbe22958c	-0.1587736
22	0xbe95f721	-0.29290107
23	0xc09c6fcb	-4.8886466
24	0x3f225ebb	0.634258
25	0x3e9ca0e1	0.3059149
26	0xbf2bfac5	-0.6717952
27	0xc006b805	-2.1049817
28	0x400b3c20	2.1755447
29	0xbfa12e2c	-1.2592216
30	0xc068c126	-3.6367888
31	0x3edc3f73	0.43017158
32	0xc04f3284	-3.2374582
33	0xc0be1c76	-5.940974
34	0x3e6a94ab	0.22908275
35	0xc07f1d72	-3.9861722
36	0x402ae1d1	2.6700327
37	0x40a6a403	5.207521
38	0xbe306a36	-0.17228016
39	0xbfc43041	-1.5327226
40	0x40812229	4.03542
41	0xc0bea455	-5.95756
42	0xc076ed52	-3.858235
43	0xbf9bec8a	-1.2181561
44	0x3fb63c10	1.423708
45	0xbe5603de	-0.20899913
46	0x3ee6a3be	0.450468
47	0xbff0d947	-1.8816308
48	0x4006365a	2.0970674
49	0xbf37c8e4	-0.7179091
50	0xbece21be	-0.40260118
51	0xbe120e0f	-0.14263175
52	0x3fa8bddf	1.3182944
53	0xc0124427	-2.2854097
54	0x3fbebe39	1.4901801
55	0x40cbea00	6.3723145
56	0x3f29585f	0.6615047
57	0x3e9914b8	0.2989862
58	0xbf855ba5	-1.0418593
59	0xbf79dbed	-0.97601205
60	0x3f32edc5	0.6989406
61	0xbdfa9998	-0.12236327
62	0xbea0fca4	-0.3144275
63	0xc003891c	-2.0552435
64	0xbf858571	-1.0431348
65	0xbfa915b5	-1.320975
66	0xc090e154	-4.527506
67	0xc0236fd6	-2.553701
68	0x3fddd252	1.732981
69	0x3ef3f91a	0.47650987
70	0x3ed953ae	0.42446655
71	0x3f91d8fc	1.1394343
72	0xbfc414e9	-1.5318881
73	0xbf9e3442	-1.2359698
74	0x402376fb	2.554137
75	0xbeb91b3b	-0.36153588
76	0xc04034f9	-3.0032332
77	0xc01ee5ff	-2.4827878
78	0x3f8bde73	1.0927261
79	0xbda1c9f6	-0.07899849
80	0xbf9944e0	-1.1974144
81	0xbd0bfedb	-0.034178596
82	0x3ec20148	0.37891603
83	0xc108b132	-8.543261
84	0xbf48e964	-0.78481126
85	0x3ed8a326	0.42311972
86	0x40c7fd83	6.2496963
87	0xc03c5903	-2.9429328
88	0xc003f65f	-2.0619123
89	0xbef29af8	-0.47383857
90	0xc039a5f6	-2.9007545
91	0x3fc87109	1.5659496
92	0x40904c4d	4.509314
93	0x3fd44366	1.6583068
94	0xbf7351bd	-0.950466
95	0x3f8ff6d6	1.1247203
96	0xbf8ff4d2	-1.1246588
97	0x4074d454	3.8254595
98	0xbfc79880	-1.5593414
99	0xc0019034	-2.0244265
100	0xc044a7b2	-3.0727353
101	0x3ea9ac4f	0.33139274
102	0xc019725a	-2.3976045
103	0x3f10c8d1	0.5655642
104	0xbfb7077b	-1.4299158
105	0xc04aea02	-3.1705327
106	0x3f973141	1.1811906
107	0xbf025ba3	-0.50921077
108	0xc00b532d	-2.1769516
109	0xc03e8a30	-2.9771843
110	0xc01eeef7	-2.4833353
111	0xbf6f7d0e	-0.93550193
112	0x3f80839e	1.0040166
113	0x4034890e	2.8208652
114	0xbd01f959	-0.031731937
115	0x3f943169	1.1577579
116	0x400e0961	2.2193224
117	0xbf92855d	-1.1446949
118	0x3fd9197a	1.69609
119	0xbf111b90	-0.5668268
120	0xc01fc565	-2.496423
121	0xbe3702f6	-0.17872223
122	0x3fcdd834	1.6081605
123	0x408df9f0	4.43676
124	0xbd8d1575	-0.06888858
125	0x409b21c0	4.84787
126	0x3eaf18b4	0.34198534
127	0x3e9c64de	0.30545706
128	0xc054d904	-3.3257456
129	0xc0455004	-3.0830088
130	0xbf3ea526	-0.74470747
131	0xbe8e77f1	-0.27825883
132	0xc0a2b711	-5.084847
133	0xbee30a76	-0.4434392
134	0x3f598bc9	0.8497892
135	0x3fc76d66	1.5580261
136	0xc03e3baa	-2.9723916
137	0xbf0c053f	-0.54695505
138	0xbe0e92b2	-0.13923147
139	0x3f0bcca7	0.5460915
140	0x3f324acc	0.6964538
141	0xbf974f90	-1.1821156
142	0x40820314	4.0628757
143	0xc02d3a71	-2.706692
144	0x3eeb29a1	0.45930198
145	0x3f3ae663	0.7300779
146	0xc0a92658	-5.2859306
147	0xbfb53c5c	-1.4159045
148	0xbe968da2	-0.29404932
149	0xc07d280e	-3.9555697
150	0x3f28e7a1	0.6597844
151	0xc05133b4	-3.2687807
152	0x4024597b	2.5679615
153	0x3f8fd986	1.1238258
154	0x3f2051ab	0.62624615
155	0xc0dee36f	-6.965263
156	0x3f9c96e5	1.2233549
157	0xbe0cc38f	-0.13746475
158	0xbf24a45a	-0.6431328
159	0xbf9255d4	-1.1432443
160	0xbe6a1bf6	-0.22862229
161	0x400702e9	2.1095526
162	0x3f085a2b	0.53262585
163	0xbf7f286a	-0.9967104
164	0xbd14321f	-0.03618061
165	0xc088e8fa	-4.2784395
166	0xbe391452	-0.18074158
167	0xbe7ee8a7	-0.24893437
168	0x3e33761f	0.17525528
169	0x3f69ea96	0.91373575
170	0x3f2d148e	0.6760949
171	0xbe9eac13	-0.30990657
172	0xc047df4c	-3.123004
173	0xc025757d	-2.585296
174	0x3fa32faa	1.2748921
175	0xbdccea4d	-0.10005627
176	0x3ff955ee	1.9479349
177	0xc01afeef	-2.42181
178	0x40ed2637	7.410915
179	0xbf41b0df	-0.7566051
180	0xbfc364d1	-1.5265142
181	0x3f1e597c	0.6185529
182	0x3f7f1c9e	0.9965304
183	0xc016d366	-2.3566527
184	0x3fc93c3c	1.5721507
185	0xc0decbce	-6.9623785
186	0xc03ec68e	-2.9808688
187	0xbeadd6af	-0.33952853
188	0xc08c71e6	-4.3889036
189	0xbed34da1	-0.41270164
190	0xbfbc650e	-1.471834
191	0xbf389b25	-0.7211173
192	0xc062c693	-3.54337
193	0xc08f8614	-4.485117
194	0x3efac22f	0.48976275
195	0x4009f065	2.1552975
196	0xbf3df9ef	-0.74209493
197	0x409975a1	4.795609
198	0x3e80bd8a	0.25144607
199	0xbfc24737	-1.5177983
200	0x3e54fecb	0.20800321
201	0xc03b8512	-2.929997
202	0x3fb9baef	1.4510173
203	0xc0864ad9	-4.1966367
204	0x3eda2f49	0.426142
205	0xc1001ba2	-8.006746
206	0x40e90983	7.282411
207	0xbe93baae	-0.28853363
208	0xbf96f454	-1.1793313
209	0x4022f90d	2.5464509
210	0x3ffde8cc	1.9836669
211	0x3fb7b781	1.4352876
212	0xc025ba41	-2.589493
213	0x40ab8cfa	5.360959
214	0x40195d41	2.3963168
215	0xc09de229	-4.9338574
216	0x409d7408	4.920414
217	0xbfaee6d6	-1.3664196
218	0x3fd5247c	1.6651759
219	0x4064448a	3.5666833
220	0x400b0bc9	2.1725943
221	0x3f93fe34	1.1561952
222	0x400d3835	2.2065556
223	0x3a32b9cf	0.0006817849
224	0xc0377ca3	-2.8669822
225	0x406a7a87	3.6637285
226	0xc0201660	-2.5013657
227	0xbf8fa25c	-1.1221423
228	0xc097efb1	-4.748009
229	0xbf1dc445	-0.6162761
230	0x409a76e0	4.827011
231	0xbeb2daee	-0.34932655
232	0x3eadc5a8	0.33939862
233	0x3f870a17	1.0549954
234	0xbf3a3d2a	-0.7274958
235	0xbf8a9c1c	-1.0828891
236	0x3fb5993d	1.418739
237	0xbf6ba6a5	-0.92051154
238	0x40ba4d71	5.8219533
239	0x4095e143	4.683748
240	0x3f27e86d	0.6558903
241	0x3fed0f9e	1.8520391
242	0xc049f02a	-3.1552835
243	0xbd57ccd0	-0.05268556
244	0xc072c216	-3.793096
245	0xbfe343c2	-1.7755053
246	0xc00e58fa	-2.2241807
247	0xbe85f762	-0.261653
248	0x409f2df3	4.974359
249	0x4039d973	2.903897
250	0x4014416f	2.3164937
251	0xc06516c7	-3.5795152
252	0xbff6b71e	-1.9274633
253	0xbe7dcb6f	-0.24784635
254	0xc09a95b3	-4.830774
255	0x3f6fb37f	0.93633264

arith.constant1 f4 [64]
0	0x3c8633c6	0.01638211
1	0xbf68f33e	-0.9099616
2	0xbfa919f2	-1.3211043
3	0xbfc5ff60	-1.5468559
4	0xbf955f30	-1.1669674
5	0xc021875c	-2.5238867
6	0x3ed2f5d0	0.41203165
7	0x40831250	4.0959854
8	0x40247398	2.5695553
9	0xc033c424	-2.8088465
10	0x3f1fdd90	0.6244745
11	0x4040872a	3.0082498
12	0x4009fef3	2.1561859
13	0xbff8b719	-1.9430877
14	0x4042b99e	3.0425792
15	0xc08ec528	-4.461567
16	0xc0205dcf	-2.5057256
17	0xbf8026dd	-1.001186
18	0xbe9ee2de	-0.3103246
19	0xbf837a85	-1.0271765
20	0xbf480da9	-0.78145844
21	0x3ffc6dc4	1.9720998
22	0xbcdadf4e	-0.026717808
23	0xbfa529f4	-1.2903428
24	0x3e26be8b	0.16283624
25	0xbef6efde	-0.4822988
26	0xbfae43fe	-1.36145
27	0xc09deee4	-4.9354115
28	0x408d759f	4.420608
29	0xbf943525	-1.1578718
30	0xbeac3be0	-0.3363943
31	0x401aaf53	2.416951
32	0xbfebeb93	-1.8431267
33	0x3f6b6c06	0.91961706
34	0xc06883e8	-3.633051
35	0x3ffc58f5	1.9714648
36	0xbdbe37c0	-0.09287977
37	0xc00c1f9e	-2.1894298
38	0xc0219bd3	-2.5251358
39	0xc0698eca	-3.6493402
40	0xbf22e682	-0.63632977
41	0x3fdf7a53	1.7459205
42	0xc0454e69	-3.0829108
43	0xbf952153	-1.1650795
44	0xbf7b861d	-0.98251516
45	0xbdfa3fce	-0.12219201
46	0x40a3929f	5.111648
47	0xbfd4fe90	-1.6640186
48	0x3ffd07d1	1.976801
49	0x3f0a7fb2	0.541011
50	0x4045b24a	3.089007
51	0xbf1a6849	-0.60315377
52	0x403e1d0f	2.9705236
53	0xc0210403	-2.5158699
54	0xbe17b1b8	-0.14813888
55	0xbed7faf9	-0.42183664
56	0x400f9ab0	2.2438164
57	0xbf9c57bb	-1.2214273
58	0x3facf3ef	1.3511943
59	0xbfd4c3ac	-1.6622214
60	0x403a1a06	2.9078383
61	0x3e113626	0.14180812
62	0xbe2e1150	-0.16998792
63	0x3e973d05	0.29538742

arith.constant2 f4 [1, 64]
0	0xbb865745	-0.004099759
1	0x3c5331f3	0.012890327
2	0x3d1d9305	0.038470287
3	0x3e2eb1f0	0.17060065
4	0xbd9d05e7	-0.076671414
5	0xbd902827	-0.070389085
6	0xbe3aa0ad	-0.18225355
7	0xbe421512	-0.1895335
8	0xbe49c757	-0.19704948
9	0xbd135d11	-0.035977427
10	0x3e1c36b2	0.1525524
11	0x3e4dc87c	0.2009601
12	0x3dc1bcec	0.09459862
13	0xbc917681	-0.017756702
14	0xbe103ec1	-0.14086439
15	0xbe95a93a	-0.29230672
16	0x3e06839f	0.13136147
17	0xbe898704	-0.2686082
18	0xbba214c2	-0.004946322
19	0xbe360dcd	-0.17778702
20	0xbc367025	-0.011135136
21	0x3e2f26be	0.17104623
22	0x3e8ece09	0.27891567
23	0x3e337032	0.17523268
24	0xbe1d5baf	-0.15367006
25	0xbbec405c	-0.0072098207
26	0xbda8f864	-0.08250502
27	0xbd4f067e	-0.0505433
28	0x3e0d0deb	0.1377484
29	0x3e5016e7	0.20321237
30	0xbd6842f0	-0.05670446
31	0xbe82a7ac	-0.25518548
32	0xbc2a83ef	-0.010407432
33	0x3e04efa4	0.1298204
34	0xbc35c15e	-0.011093466
35	0x3dd5c00f	0.10437023
36	0x3cea940f	0.028635053
37	0x3c8125c5	0.01576508
38	0x3ce1c47d	0.027559513
39	0xbd0a7af9	-0.033808682
40	0xbe9182ce	-0.2842011
41	0xbed84aad	-0.42244473
42	0x3c5ec730	0.013597295
43	0xbe10b68f	-0.1413214
44	0xbe141de6	-0.1446453
45	0xbdcc1ee1	-0.09966827
46	0xbeac02f6	-0.3359601
47	0xbe77a5c3	-0.24184327
48	0x3e8811ea	0.26576167
49	0xbd8bc2d2	-0.068242684
50	0x3e87931d	0.26479426
51	0xbe2e9f13	-0.1705287
52	0x3dfdf26f	0.12399756
53	0x3d2701d9	0.040773246
54	0x3e31bbba	0.17356768
55	0xbc7e9993	-0.015539545
56	0xbd1b0c1f	-0.037853356
57	0x3e5863f5	0.2113188
58	0xbe292dfa	-0.16521445
59	0xbceb2ec7	-0.028708829
60	0x3e66fdd9	0.22557773
61	0x3e85b69d	0.26115885
62	0x3eac2047	0.33618376
63	0x3e0b32aa	0.13593546

arith.constant4 f4 [256]
0	0x3d6cd9cd	0.0578249
1	0x3d646497	0.055759992
2	0xbe933e9a	-0.287587
3	0xbdba1642	-0.090862766
4	0xbdb5fbcb	-0.08885916
5	0xbe6f7dfe	-0.23387906
6	0xbc69c9fa	-0.014269346
7	0xbc4126ce	-0.011789037
8	0x3d97b128	0.07406837
9	0xbd322667	-0.043493655
10	0xbd8aeaa0	-0.067830324
11	0xbce1317f	-0.027489422
12	0x3d0e0b75	0.034678895
13	0xbd98d2b4	-0.074620634
14	0xbd0338b9	-0.032036517
15	0xbd8db0c1	-0.06918479
16	0xbcc87f3e	-0.024474736
17	0xbdb7f815	-0.08982865
18	0x3cac92b7	0.021066053
19	0x3cee8a8d	0.0291188
20	0x3ceb8644	0.028750546
21	0xbd86d9a1	-0.06584478
22	0x3ca9b1f8	0.020714745
23	0xbaafb742	-0.0013406056
24	0x3b9a589e	0.004710271
25	0x3e0462ea	0.12928358
26	0xbd046537	-0.03232309
27	0x3cdd36b3	0.027003622
28	0xbafc6624	-0.0019256514
29	0xbe375ec3	-0.17907242
30	0xbd86a52d	-0.065744735
31	0xbde8e738	-0.113722265
32	0xbd494808	-0.04914096
33	0x3d91d6a0	0.071210146
34	0xbdb41229	-0.08792526
35	0x3d3a6e8e	0.04551559
36	0xbe818dcc	-0.25303495
37	0xbab0844a	-0.001346716
38	0x3d53fa74	0.051752523
39	0x3c42a7cf	0.011880829
40	0xbe4be3dc	-0.1991114
41	0xbe0d78bb	-0.13815586
42	0x3d482682	0.04886485
43	0xbcb56bb8	-0.02214609
44	0x3d8d7f85	0.06909088
45	0x3a0d9fda	0.0005402543
46	0xbe1d99fa	-0.15390769
47	0x3d061138	0.032731265
48	0xbe30048d	-0.17189236
49	0x3d75fbd1	0.060054604
50	0xbcf1d40f	-0.029520063
51	0xbc8ce3d2	-0.017198477
52	0xbc8281ce	-0.015931036
53	0x3d417191	0.047227446
54	0x3d0a43c6	0.03375604
55	0x3d05337c	0.032519802
56	0xbe2da331	-0.16956784
57	0x3c1b8807	0.009492881
58	0x3c565631	0.013082073
59	0x3d60c303	0.054873478
60	0xbd8d38f6	-0.0689563
61	0xbdd9b456	-0.106300995
62	0xbc6abacd	-0.014326763
63	0x3ce244d2	0.027620707
64	0xbd8f0d7d	-0.069849946
65	0x3d17e54a	0.0370839
66	0xbcbd3b59	-0.023099588
67	0xbe2a16bd	-0.16610236
68	0x3b9de78c	0.0048188623
69	0xbd3fd1b4	-0.046830848
70	0xbd711c28	-0.058864743
71	0xbd89e846	-0.06733756
72	0xbe9b38bd	-0.30316725
73	0x3db03027	0.08602934
74	0xbc309c78	-0.010779493
75	0xbe175e1c	-0.14781994
76	0xbe52fabd	-0.20603462
77	0x3cd92004	0.026504524
78	0x3d1926bc	0.037390456
79	0xbdc72f1a	-0.09725781
80	0x3d9cdb15	0.07658974
81	0x3e02c130	0.12769008
82	0xbe7746c7	-0.24148093
83	0xbcc8ebd4	-0.024526514
84	0xbe05ec15	-0.1307834
85	0xbe104760	-0.14089727
86	0x3cb9ca24	0.022679396
87	0xbe3ad14d	-0.18243904
88	0x3ce6fab5	0.028195718
89	0xbe0c22f2	-0.13685206
90	0xbe607e4a	-0.21923175
91	0x3ca152bc	0.019692771
92	0xbe3aebc8	-0.18254006
93	0x3d3ef366	0.04661884
94	0x3d118a9a	0.03553257
95	0x3c8ebce9	0.017424064
96	0x3d9de319	0.07709331
97	0xbe3fdf28	-0.18737471
98	0xbd26bf1d	-0.040709604
99	0x3cb13758	0.021632835
100	0x3d456386	0.048190616
101	0xbca73a7a	-0.020413626
102	0xbdb982b7	-0.09058135
103	0x3cd81c18	0.026380584
104	0x3cb3af73	0.021934247
105	0x3d0425c2	0.03226257
106	0x3d2758d6	0.040856205
107	0xbe1ae90c	-0.15127963
108	0x3cc4165c	0.023936443
109	0xbd8452c5	-0.064610995
110	0xbe3deff9	-0.18548574
111	0xbda54bb5	-0.080710806
112	0xbdd5579e	-0.10417102
113	0xbe508a63	-0.2036529
114	0x3bc1e5da	0.005917293
115	0xbd440ed0	-0.04786569
116	0xbcaa92b6	-0.02082191
117	0x3d145470	0.03621334
118	0x3cc8ea43	0.024525767
119	0x39c29cbc	0.0003711934
120	0xbdc1915a	-0.09451552
121	0xbd1fd3a4	-0.039020196
122	0x3d931f63	0.07183721
123	0xbe49c6f3	-0.197048
124	0x3b9250ec	0.004465213
125	0xbda71b67	-0.081595235
126	0xbd0d92fb	-0.034564
127	0xbdb337d2	-0.08750881
128	0x3d8abda3	0.067744516
129	0x3d505bb8	0.05086872
130	0xbd809c06	-0.06279759
131	0xbd39c19e	-0.045350663
132	0xbda448b0	-0.080216765
133	0xbd96de34	-0.07366601
134	0xbd8be3af	-0.068305366
135	0x3dca25e1	0.09870506
136	0xbb9d3104	-0.004797103
137	0xbe10c963	-0.14139323
138	0xbe8a97d8	-0.27068973
139	0x3cbc27c7	0.022968186
140	0xbd4401b3	-0.047853183
141	0xbe5cccd6	-0.21562514
142	0x3bf4b8c5	0.0074683153
143	0xbdf3b774	-0.11900225
144	0xbd8c715b	-0.06857558
145	0xbd8885b0	-0.06666124
146	0x3d595450	0.053058922
147	0x3d16c177	0.036805596
148	0x3d040cb6	0.032238685
149	0xbc13b344	-0.009014908
150	0x3d988e88	0.07449061
151	0xbe5294ef	-0.20564626
152	0x3d273e97	0.040831175
153	0x3d2fe901	0.04294682
154	0xbbd5fb6a	-0.006530215
155	0xbe8501d5	-0.2597796
156	0xbd11ce9b	-0.035597425
157	0xbd5bda74	-0.05367513
158	0x3cda0463	0.02661342
159	0x3d88f5d8	0.06687516
160	0x3cc2f770	0.023799628
161	0x3d15be2e	0.036558323
162	0x3dd04de2	0.10171105
163	0xbdfd7c08	-0.12377173
164	0xbc8bc189	-0.017060058
165	0x3d0f49c4	0.034982458
166	0x3dc8f99e	0.09813236
167	0xbe79fb0e	-0.24412176
168	0xbdfb2f86	-0.12264924
169	0xbdb2f916	-0.087389156
170	0xbe3f48a4	-0.18680054
171	0x3cf52fe2	0.029930059
172	0xbd873d02	-0.06603433
173	0x3c98c1fa	0.018647183
174	0xbd0b9731	-0.034079734
175	0x3c641a9c	0.01392236
176	0xbe015572	-0.12630251
177	0x3d891faf	0.06695496
178	0x3d18d736	0.037314616
179	0x3af5eefe	0.0018763242
180	0xbe29059c	-0.16506046
181	0xbdf97617	-0.12180727
182	0x3ca32912	0.019917045
183	0x3c29a254	0.010353643
184	0xbd39cbb5	-0.045360286
185	0xbe451923	-0.1924787
186	0x3dc9e137	0.098574094
187	0x3c113175	0.008861889
188	0x3ce27e4f	0.02764812
189	0xbe0723d8	-0.13197267
190	0xbe06f857	-0.13180672
191	0xbc89e4e0	-0.016832769
192	0xbc90e057	-0.017685099
193	0xbda10ae0	-0.07863402
194	0xbdb19a8f	-0.08672058
195	0xbdf2b6dd	-0.11851285
196	0xbe1c6533	-0.1527298
197	0xbdda030a	-0.10645111
198	0xbd551fbc	-0.052032217
199	0xbbafeed8	-0.0053690486
200	0x3d5ba06e	0.053619795
201	0x3b43e6a7	0.0029892118
202	0xbdf3b469	-0.11899645
203	0xbe244aa0	-0.16044092
204	0xbd112221	-0.03543294
205	0xbe096d8f	-0.134207
206	0xbdc67081	-0.09689427
207	0xbd845e2c	-0.06463274
208	0xbe185ba0	-0.14878702
209	0xbcb5371b	-0.022121003
210	0xbe093ff0	-0.13403296
211	0xbe323785	-0.17403992
212	0xbd8b05b7	-0.067881994
213	0xbdb3175d	-0.087446906
214	0xbe34ac6c	-0.17643899
215	0xbdac66bb	-0.08418032
216	0xbdacb14b	-0.084322535
217	0xbe093c58	-0.13401926
218	0x3d2f8602	0.04285241
219	0xbe130911	-0.14358927
220	0x3d2a8008	0.041626006
221	0x3cd80b6c	0.026372634
222	0xbd2dd676	-0.042440854
223	0xbd812d06	-0.06307416
224	0xbd973e4e	-0.073849306
225	0xbe12f24f	-0.14350246
226	0xbe0fefc2	-0.14056304
227	0x3c3c21f8	0.011482708
228	0xbe0dd357	-0.13850151
229	0x3d91bedb	0.07116481
230	0xbdba3d9a	-0.09093781
231	0xbe1746bd	-0.14773078
232	0xbbc57b80	-0.0060266852
233	0x3c986fd1	0.018608006
234	0xbd16653f	-0.03671765
235	0xbc2b9b06	-0.010473972
236	0xbdcefd8a	-0.101069525
237	0xbc90a070	-0.017654628
238	0x3d6669f5	0.056253392
239	0xbe83501c	-0.25647056
240	0xbe153c9a	-0.14573899
241	0x3cd910a1	0.026497187
242	0xbd7bc39d	-0.06146585
243	0xbd275633	-0.04085369
244	0xbdc2e66a	-0.09516604
245	0x3ab271d6	0.0013614248
246	0x3d62801f	0.055297967
247	0xbe211b55	-0.15733083
248	0x3ca499fa	0.020092953
249	0xbdc17600	-0.09446335
250	0xbe10b317	-0.14130817
251	0xbe513a7b	-0.20432465
252	0x3d7b6424	0.0613748
253	0x3d46643b	0.04843543
254	0x3d5928d0	0.053017437
255	0x3c3492ec	0.011021357

sequential_1_1/dense_3_1/MatMul f4 [256, 521]
0	0x3ccbeb8e	0.024892595
1	0xbcdbbef6	-0.026824456
2	0xbe78e286	-0.24305162
3	0x3c8f0f0e	0.017463233
4	0x3eb44899	0.35211638
5	0xbdb11e55	-0.086483635
6	0xbf9d02fe	-1.2266538
7	0xbf2aa4f8	-0.6665797
8	0xbf4bc0e3	-0.79591197
9	0x3c7d71b0	0.015469
10	0x3d9c3070	0.07626426
11	0xc0067a20	-2.101204
12	0xbefa61bf	-0.489027
13	0xbe5ddf4c	-0.21667212
14	0x3e60f6ac	0.21969098
15	0xbd05896d	-0.032601763
16	0xbdf6c270	-0.12048805
17	0xbd39e563	-0.045384776
18	0x3e3514af	0.17683671
19	0x3e05d039	0.13067712
20	0x3e0aa284	0.13538557
21	0xbd81b71f	-0.06333756
22	0x3d4c5248	0.049883157
23	0xbf022ada	-0.50846636
24	0x3d9ddf8a	0.07708652
25	0xbe0b86e9	-0.13625683
26	0x3db7567a	0.08952041
27	0x3c794b74	0.015215743
28	0x3e880bee	0.26571602
29	0x3e83317b	0.25623688
30	0x3e60d0f9	0.21954717
31	0xbe1bdc64	-0.15220791
32	0x3c072d0b	0.008250485
33	0xbe950a00	-0.29109192
34	0x3e47378d	0.19454785
35	0xbdf2b580	-0.11851025
36	0x3e02f9f3	0.1279066
37	0x3c8a79bd	0.016903752
38	0xbd549fee	-0.051910333
39	0xbe37ea82	-0.17960551
40	0x3eb4d327	0.35317346
41	0xbdf03190	-0.11728203
42	0x3de15a2e	0.110035285
43	0x3d2b08e7	0.041756537
44	0x3e117ccf	0.14207767
45	0x3bcb7780	0.006209314
46	0x3d4e158f	0.05031353
47	0xbe9e0b68	-0.30868077
48	0xbad0104f	-0.0015874001
49	0x3dd35af0	0.10320079
50	0x3dbe90ee	0.09304987
51	0x3e3995b0	0.18123507
52	0x3e8c2fc7	0.273802
53	0xbe083a35	-0.13303454
54	0xbd07945c	-0.03310047
55	0x3c3d569e	0.011556296
56	0xbdb40760	-0.08790469
57	0x3dc41f27	0.09576254
58	0xbdba7edd	-0.091062285
59	0x3d888222	0.06665446
60	0xbc6778d0	-0.014127925
61	0xbe7263e3	-0.23670916
62	0x3dc7ca3d	0.09755371
63	0xbf3b927f	-0.7327041
64	0xbebc7b1b	-0.36812672
65	0xbe697630	-0.22798991
66	0x3e2a178d	0.16610546
67	0x3cabfc96	0.020994466
68	0xbd8442f4	-0.06458083
69	0x3e0e6bc1	0.13908292
70	0xbeeaacca	-0.45834953
71	0xbe9f8aee	-0.31160682
72	0x3db66490	0.089058995
73	0xbeb45bb8	-0.35226226
74	0x3e61710f	0.22015785
75	0x3eec5b8e	0.461636
76	0x3d606b08	0.054789573
77	0xbd21f486	-0.039539836
78	0x3dc7e8e9	0.09761221
79	0x3c05192f	0.00812368
80	0x3e8730d8	0.26404452
81	0x3e08fa49	0.13376726
82	0xbe03aa77	-0.12857996
83	0x3cde94d8	0.027170584
84	0xbe7dfe08	-0.24803936
85	0x3dcd8948	0.1003595
86	0x3dafe9ee	0.085895404
87	0x3e323db6	0.17406353
88	0x3d60ce26	0.0548841
89	0x3e40bbae	0.18821594
90	0xbd7c7b26	-0.06164088
91	0xbe8f9caa	-0.28049213
92	0xbe4f52c1	-0.20246412
93	0xbe42225d	-0.18958421
94	0x3d286e19	0.041120622
95	0xbde2e7eb	-0.11079391
96	0xbe896140	-0.26832008
97	0x3deca1b3	0.11554279
98	0x3e3b7773	0.18307285
99	0xbdaa1ea6	-0.08306627
100	0xbe291d20	-0.16515017
101	0xbe8f6f55	-0.28014627
102	0xbf034469	-0.5127626
103	0xbe89f629	-0.26945618
104	0x3d5fac1e	0.054607503
105	0xbd900857	-0.07032841
106	0xbe27ac02	-0.1637421
107	0xbd2ff050	-0.04295379
108	0x3c252744	0.010080162
109	0x3d86d6cc	0.06583938
110	0x3d517d6b	0.051145
111	0xbdafeef7	-0.08590501
112	0xbf1c31e2	-0.61013615
113	0xbedbe183	-0.4294549
114	0xbed1711a	-0.40906602
115	0x3ebd737d	0.37002173
116	0xbe3a0b7a	-0.1816844
117	0x3e4369bb	0.19083302
118	0xbdf8a694	-0.12141147
119	0xbe8f5753	-0.2799631
120	0xbe8b18ca	-0.2716735
121	0x3d93df3c	0.07220313
122	0xbd6d3b55	-0.05791791
123	0x3d0db55d	0.03459679
124	0x3ec591aa	0.38587695
125	0xbf018b0b	-0.5060279
126	0x3e8636ec	0.26213777
127	0xbe2d2fc6	-0.16912755
128	0xbea16e17	-0.31529304
129	0xbe8d8b80	-0.27645493
130	0xbd26ce33	-0.04072399
131	0x3e3df5d2	0.18550804
132	0xbc6da148	-0.0145037845
133	0xbe2fa216	-0.17151675
134	0x3d7fc43d	0.062443007
135	0x3d0be02b	0.03414933
136	0xbcc5bdf8	-0.024138436
137	0x3d638f88	0.055556804
138	0xbc160fab	-0.009159009
139	0x3d07c53e	0.03314709
140	0x3e789429	0.24275269
141	0xbe15614b	-0.14587896
142	0xbde4dd20	-0.11174989
143	0x3e992bd6	0.29916257
144	0xbd0571d4	-0.032579258
145	0xbdf6ed7c	-0.12057015
146	0xbd0e93b6	-0.034808837
147	0xbd0a39ab	-0.033746403
148	0x3df4c807	0.11952215
149	0x3cfd36e2	0.03090996
150	0x3e10997c	0.1412105
151	0x3d290434	0.041263774
152	0xbd05e410	-0.0326882
153	0x3e539a93	0.20664434
154	0x3c90bcb6	0.01766811
155	0xbd27db7b	-0.040980797
156	0xbe01606e	-0.12634441
157	0xbcdb84f9	-0.026796805
158	0xbe00beb0	-0.12572742
159	0xbc91bbd6	-0.017789762
160	0xbcc24899	-0.023716258
161	0xbce7c68a	-0.028292913
162	0xbdadbbfb	-0.0848312
163	0x3d7b2add	0.061320174
164	0x3cc7c3fc	0.024385445
165	0xbdecc8cb	-0.11561736
166	0xbe0dae3f	-0.13836001
167	0x3ddc1c41	0.107475765
168	0xbf15baa9	-0.58487946
169	0xbdb4eb06	-0.0883389
170	0x3ca66920	0.0203138
171	0xbdbc7fb3	-0.09204044
172	0xbdb5e9d9	-0.088824935
173	0x3d8ad93a	0.06779714
174	0xbdad5505	-0.08463482
175	0xbcc9d714	-0.02463869
176	0x3bd10f4d	0.006379998
177	0xbbda57aa	-0.0066632824
178	0xbcf27116	-0.02959494
179	0xbeae9e3b	-0.34105095
180	0xbb8855e0	-0.0041606277
181	0xbd74519f	-0.059648152
182	0x3da382e2	0.07983948
183	0x3beed934	0.007289076
184	0xbe092f20	-0.13396883
185	0xbd99ce0c	-0.075100034
186	0xbd028f7b	-0.031875115
187	0xbe131ac1	-0.14365675
188	0xbe0a38c7	-0.13498221
189	0xbd8950d7	-0.06704872
190	0xbc9e066d	-0.019290173
191	0xbdbb4d10	-0.09145558
192	0x3e9d5970	0.30732298
193	0x3e2cc579	0.16872205
194	0xbd826354	-0.063666016
195	0x3d677dfb	0.05651663
196	0xbd49dd5d	-0.049283374
197	0x3ebb63ca	0.3659957
198	0xbe6118ce	-0.21982118
199	0xbc86eb8e	-0.016469743
200	0x3d33d974	0.04390855
201	0x3d5bc571	0.05365509
202	0x3e48014e	0.19531748
203	0x3d904fa2	0.07046439
204	0x3d92ad14	0.07161918
205	0xbdb3d86a	-0.08781512
206	0x3c0eff83	0.008727911
207	0x3de9d772	0.11418046
208	0x3e95d218	0.2926185
209	0x3e94225d	0.28932467
210	0xbe5e1c62	-0.21690515
211	0x3d400ecf	0.046889123
212	0xbb8ea5bc	-0.004353253
213	0xbe7ec2d7	-0.24879013
214	0x3e4a6cda	0.19768086
215	0x3dcd57d2	0.10026516
216	0xbdd470cd	-0.103730775
217	0x3d1f6b5a	0.038920738
218	0x3d06931c	0.03285514
219	0x3d8bd81a	0.068283275
220	0xbce2279e	-0.027606782
221	0x3dd01888	0.10160929
222	0x3cd14969	0.0255477
223	0x3e1449b6	0.14481243
224	0x3cb6026f	0.022217957
225	0xbe38151c	-0.17976803
226	0xbe7cc4b9	-0.24684419
227	0x3e8821fb	0.26588425
228	0xba461310	-0.0007555941
229	0x3e3dd8bf	0.18539713
230	0x3ba29614	0.0049617384
231	0x3dc6439d	0.09680865
232	0xbedc3245	-0.43007103
233	0xbecf2e62	-0.40465075
234	0xbca3585d	-0.019939596
235	0x3aa5e9ee	0.0012658217
236	0xbe06c282	-0.13160136
237	0x3d70cd9e	0.05878984
238	0xbe34b787	-0.17648135
239	0x3e0a3e94	0.13500434
240	0xbda7969d	-0.08183024
241	0xbdcd35dc	-0.100200385
242	0xbe98e7fc	-0.2986449
243	0x3d460219	0.048341844
244	0x3d00ba8c	0.031427905
245	0x3ddadd7b	0.10686775
246	0xbdea50cc	-0.11441192
247	0xbe06d9d4	-0.13169032
248	0xbe00885d	-0.12552018
249	0x3e010121	0.12598087
250	0xbdcf46ff	-0.10120963
251	0x3ea7a382	0.32741934
252	0x3eaa7e2b	0.33299384
253	0xbe8f76ce	-0.28020328
254	0xbea67f90	-0.32519197
255	0x3dc26d53	0.09493508
